models/car_price_model_full.pth (torch, 14218 bytes, 5 tensors)

weight f4 [64, 5]
-0.25993004 0.4115987 -0.42144468 -0.42868197 -0.18187164 -0.2914584 -0.12032616 -0.07503316
0.060048394 0.14306468 0.07636646 -0.28984222 -0.28027213 0.23952465 0.28416544 0.38395715
0.33844826 -0.07106995 -0.13797548 -0.18714654 0.33301544 -0.332101 0.21555513 0.2343608
-0.044061147 0.19293272 0.35393468 0.08968636 0.052564614 0.2665571 -0.03415257 0.40687755
-0.1429115 0.2515462 -0.27329218 -0.06910861 0.03460864 0.27011064 -0.11704275 -0.2229399
0.11766121 0.21074727 -0.47255254 -0.24098158 0.3507493 -0.2750178 -0.4216717 0.0073269885
-0.21081567 0.33813098 -0.09668971 0.042301197 0.35259667 0.05840454 -0.24178481 -0.059272725
-0.18920305 -0.20496641 -0.11645434 0.25060213 0.3813038 -0.42485258 -0.044308703 -0.005646135
0.089244634 0.1076909 0.24179415 0.051332366 -0.11222931 -0.22424282 0.0774646 -0.13407527
0.52802193 0.109985046 0.11139107 0.23642373 0.27826327 -0.043112095 -0.23887496 -0.36393493
0.38815624 -0.4115097 0.11130725 0.100158274 0.30747113 -0.37937826 0.270085 0.029745013
-0.10786417 -0.22458689 0.16973841 -0.12774135 -0.08190112 0.060708307 0.17038704 0.22265114
-0.20957644 0.04522348 0.13381223 -0.31285888 0.34142756 -0.07880862 0.010089866 -0.12405308
0.061444618 0.05392394 0.21384531 -0.034294844 -0.09435632 -0.2913636 -0.10505147 0.17257899
-0.20774773 0.43243584 0.0045170677 -0.14735076 0.07334503 0.18254189 0.2095163 -0.04869181
0.27707267 -0.3161426 0.4624787 -0.32398227 0.4482324 -0.12137381 -0.14151253 0.24874805
-0.16296598 -0.11589536 0.26812217 0.29314265 0.25691208 0.12798357 -0.30369475 -0.087422326
0.09010964 -0.021544507 -0.29305866 -0.16652912 -0.3759053 -0.017665628 0.27156478 -0.42016864
-0.3449142 0.016900077 -0.14416656 0.039461937 0.37014338 0.2555113 -0.2739248 0.091760166
-0.3028501 0.31744283 -0.13738638 -0.0714616 -0.3791369 -0.4428555 0.24413383 -0.31205785
0.009636933 -0.3184509 -0.3129674 -0.3416934 -0.074118726 -0.3501981 0.16384533 -0.10288841
0.29098776 -0.4160738 -0.06725717 0.3680733 -0.06945274 0.19725668 0.08572353 -0.06765694
0.08181661 -0.14754719 0.23412056 -0.29657435 -0.17054717 0.12868024 -0.07981234 0.4023789
0.007288439 0.3138763 -0.0050534545 -0.3911998 0.3099209 -0.2969206 0.13015987 0.19054587
-0.13994825 0.3802545 0.19000652 -0.037345868 -0.032095212 -0.08013981 0.17700452 -0.4694807
0.15529306 0.13076358 -0.36210772 0.10487787 0.16777375 -0.31221035 0.17284007 0.03759996
0.4131777 0.10834097 -0.43658638 -0.1530331 0.12818618 0.052232604 -0.020125926 0.016057616
-0.33203676 0.011636894 -0.011759538 0.4374881 -0.15527211 0.23872598 0.4437996 0.3545365
0.2078299 0.24035385 0.37219656 -0.2557936 0.17693871 0.017905012 0.057931 0.16537216
-0.03643643 -0.24346666 0.3802493 0.2546727 0.27672058 -0.0024523176 0.09568235 -0.058766834
0.11379764 0.19895044 0.037715994 -0.1973075 -0.44145316 -0.11712218 -0.206435 -0.017318942
-0.44145274 0.04902258 0.17734592 0.105911806 -0.031238172 0.030323345 -0.21385969 0.049035314
00000000: 8d15 85be 11bd d23e 99c7 d7be 347c dbbe
00000010: 8f3c 3abe 093a 95be 906d f6bd fcaa 99bd
00000020: 4ef5 753d 8c7f 123e 0566 9c3d 3366 94be
00000030: d47f 8fbe f345 753e 227e 913e 0896 c43e
00000040: 1749 ad3e 1f8d 91bd 7249 0dbe 58a3 3fbe
00000050: 0081 aa3e 2409 aabe 7cba 5c3e 47fc 6f3e
00000060: 7679 34bd 2890 453e ed36 b53e 7bad b73d
00000070: fe4d 573d 2c7a 883e 91e3 0bbd 4152 d03e
00000080: 6457 12be aaca 803e f4ec 8bbe d188 8dbd
00000090: cac1 0d3d f14b 8a3e 1cb4 efbd 5b4a 64be
000000a0: 5cf8 f03d 22ce 573e 68f2 f1be e0c3 76be
000000b0: 6a95 b33e 22cf 8cbe 5ae5 d7be 3c17 f03b
000000c0: 10e0 57be 811f ad3e 4105 c6bd 0544 2d3d
000000d0: 8d87 b43e 9939 6f3d 7096 77be f5c7 72bd
000000e0: 72be 41be b7e2 51be 9d7f eebd ec4e 803e
000000f0: 403a c33e 4786 d9be 0b7d 35bd 3703 b9bb
00000100: e4c5 b63d 0c8d dc3d e398 773e e341 523d
00000110: 7bd8 e5bd e99f 65be c3a5 9e3d 074b 09be
00000120: 722c 073f d73f e13d 0021 e43d 1019 723e
00000130: 8678 8e3e 4f96 30bd a39b 74be ae55 babe
00000140: 6abc c63e 66b1 d2be 0ef5 e33d c81f cd3d
00000150: db6c 9d3e de3d c2be 9548 8a3e d0ab f33c
00000160: e4e7 dcbd 1bfa 65be e8cf 2d3e a1ce 02be
00000170: c6bb a7bd 46a9 783d f179 2e3e a9fe 633e
00000180: 359b 56be 413c 393d 1306 093e 0a2f a0be
00000190: 98cf ae3e 6a66 a1bd f74f 253c 8b0f febd
000001a0: 5aad 7b3d 59df 5c3d 44fa 5a3e c078 0cbd
000001b0: e33d c1bd 9c2d 95be 3a25 d7bd 8cb8 303e
000001c0: d2bb 54be 3b68 dd3e e903 943b 1ee3 16be
000001d0: eb35 963d 43ec 3a3e 718b 563e 1071 47bd
000001e0: 78dc 8d3e 71dd a1be 02ca ec3e 01e1 a5be
000001f0: b87e e53e d592 f8bd a9e8 10be cfb7 7e3e
00000200: 8ee0 26be 8c5a edbd 4f47 893e cb16 963e
00000210: fb89 833e 200e 033e e17d 9bbe 7a0a b3bd
00000220: 678b b83d 1b7e b0bc c90b 96be 9c86 2abe
00000230: a976 c0be 82b7 90bc 8a0a 8b3e 5820 d7be
00000240: 9898 b0be 0872 8a3c 66a0 13be d7a2 213d
00000250: 6f83 bd3e 61d2 823e df3f 8cbe c1ec bb3d
00000260: 2b0f 9bbe de87 a23e 04af 0cbe 765a 92bd
00000270: 3b1e c2be f5bd e2be 38fe 793e 0cc6 9fbe
00000280: 3ae4 1d3c ff0b a3be 433d a0be 70f2 aebe
00000290: 8fcb 97bd 2a4d b3be 12c7 273e 29b7 d2bd
000002a0: 59fc 943e a007 d5be 21be 89bd 1b74 bc3e
000002b0: 3d3d 8ebd a8fd 493e d18f af3d b98f 8abd
000002c0: 788f a73d 9c16 17be 4dbd 6f3e 98d8 97be
000002d0: eba3 2ebe c1c4 033e a774 a3bd 9b04 ce3e
000002e0: dcd3 ee3b 65b4 a03e 7397 a5bb 574b c8be
000002f0: f4ad 9e3e fa05 98be a148 053e 751e 433e
00000300: 984e 0fbe b8b0 c23e 1291 423e fbf7 18bd
00000310: 4576 03bd 5720 a4bd ac40 353e c65f f0be
00000320: 2505 1f3e e3e6 053e 2f66 b9be 35ca d63d
00000330: e2cc 2b3e 09da 9fbe fdfc 303e 6a02 1a3d
00000340: 078c d33e dfe1 dd3d 4088 dfbe b5b4 1cbe
00000350: 3d43 033e dbf1 553d 20df a4bc 438b 833c
00000360: b900 aabe aca8 3e3c 14ab 40bc 71fe df3e
00000370: a7ff 1ebe 9574 743e b339 e33e cf85 b53e
00000380: 5cd1 543e 521f 763e 8c90 be3e 61f7 82be
00000390: 6c2f 353e 88ad 923c 0e49 6d3d 5257 293e
000003a0: 5e3e 15bd 534f 79be 09b0 c23e 7664 823e
000003b0: 52ae 8d3e 10b7 20bb 1cf5 c33d 7eb5 70bd
000003c0: bd0e e93d aab9 4b3e 167c 1a3d fa0a 4abe
000003d0: 2606 e2be c1dd efbd b263 53be 74e0 8dbc
000003e0: 1806 e2be e7cb 483d 2b9a 353e 4ae8 d83d
000003f0: 32e7 ffbc aa68 f83c 09fe 5abe 41d9 483d

bias f4 [64]
-0.23119181 0.34195226 0.33265916 -0.44982693 0.343901 0.115551285 0.18024021 0.10506977
0.35796842 0.28182608 0.22636263 -0.18703821 -0.28292775 0.2551823 -0.026824323 0.44903314
-0.24660926 -0.29478768 0.43312022 0.19764322 0.34802416 0.31902975 0.31073117 -0.008731438
0.03443476 -0.4411954 0.09832731 0.37774846 0.30947822 -0.31683305 0.27240878 -0.029625975
0.31946167 -0.093757674 0.26739132 -0.27255186 0.2261924 0.34073657 -0.14933072 0.23117289
0.42448875 -0.09613633 -0.17446725 0.032211665 -0.3133299 -0.14679691 0.24713208 -0.025970118
0.10042773 -0.33240733 0.03520635 -0.0415435 0.38930783 0.0569772 -0.24285746 0.07391514
-0.11031402 -0.27307132 0.22854187 -0.2385258 -0.32153448 -0.35681242 -0.15590256 -0.26140237
00000000: 8cbd 6cbe 5e14 af3e 4d52 aa3e b74f e6be
00000010: cb13 b03e 27a6 ec3d e490 383e d22e d73d
00000020: a347 b73e 824b 903e 9bcb 673e f286 3fbe
00000030: e8db 90be 41a7 823e afbe dbbc ace7 e53e
00000040: 2387 7cbe 69ee 96be efc1 dd3e fc62 4a3e
00000050: 3930 b23e de57 a33e 2818 9f3e 4e0e 0fbc
00000060: 770b 0d3d 5de4 e1be d45f c93d 3f68 c13e
00000070: ee73 9e3e f137 a2be 2a79 8b3e 2cb2 f2bc
00000080: 7b90 a33e 0604 c0bd 84e7 883e eb8b 8bbe
00000090: fb9e 673e 0675 ae3e 27ea 18be 96b8 6c3e
000000a0: 9756 d93e 20e3 c4bd 8ba7 32be 61f0 033d
000000b0: c76c a0be ee51 16be 3110 7d3e 49bf d4bc
000000c0: 0ead cd3d 4b31 aabe 8934 103d 8429 2abd
000000d0: 5b53 c73e ed60 693d a0af 78be d260 973d
000000e0: 51ec e1bd 01d0 8bbe e106 6a3e 1b40 74be
000000f0: 2ba0 a4be 1eb0 b6be eca4 1fbe 88d6 85be

weight f4 [32, 64]
-0.06356077 0.04402827 0.097341456 0.050175704 0.053233843 -0.025007734 -0.040222175 0.11911125
0.081008784 0.0735739 -0.029686494 0.051488563 0.099870995 -0.013503095 -0.035491843 -0.039950803
-0.042641122 -0.12496187 -0.045635264 -0.014782001 -0.06399013 -0.024022983 0.03867172 0.019800497
-0.092200786 0.10153064 -0.011548967 0.050036177 0.022078888 -0.13416265 -0.108405575 0.10935305
-0.034274127 -0.06088572 -0.055928838 0.07675633 -0.00400911 -0.03125194 -0.02071036 -0.07390102
-0.030384846 0.0013665613 0.057351038 -0.019533815 0.028094461 0.0012186379 0.042950347 -0.004407218
0.020669376 -0.07468946 -0.017804258 -0.05620271 -0.018525485 0.07880024 0.0904686 -0.01778397
-0.118653834 -0.0895255 -0.0642898 0.10543122 -0.072913066 -0.025776953 0.010644749 -0.009573771
0.094132856 -0.055656195 -0.0015754614 -0.04104981 0.102952376 -0.14674926 -0.100310795 0.011201089
0.11722549 -0.06295099 -0.024349967 -0.08656205 0.07633588 0.0123429345 -0.13525504 0.0666303
-0.06943557 -0.1001928 -0.1071897 0.08139196 -0.07006454 0.046018116 -0.0750121 0.07930156
-0.016533963 0.08511993 0.09254567 -0.0061163306 0.07635013 0.03789457 -0.05448765 0.095319726
-0.027468583 -0.001658286 0.04006692 -0.025815725 -0.107838735 -0.08186711 -0.00192439 -0.1771742
-0.115930274 -0.045526803 -0.089516506 -0.045539938 0.09221446 0.058333483 -0.069367014 -0.028794734
-0.12498952 -0.02647829 0.017807098 -0.105493724 0.021875944 -0.08088092 -0.08775252 0.09935537
0.08609936 -0.12068503 -0.10610369 -0.0071178377 0.09946677 0.0012562126 -0.12462869 -0.07894908
-0.023767889 0.041249022 -0.023163937 0.04293913 -0.063519694 -0.16283375 -0.120962106 -0.0828876
-0.059925247 -0.10913238 0.099370226 0.0967654 -0.0014215255 -0.07648053 -0.16126019 -0.100357905
-0.12939546 0.10659438 -0.097078905 0.029164456 -0.12271388 0.041101452 -0.05817961 -0.049741793
-0.11591267 0.066739246 -0.028027028 -0.119794115 -0.049655896 -0.10633347 -0.12476872 -0.03072995
-0.06773528 -0.0049078083 -0.012418074 -0.06290266 -0.039000396 0.017043749 -0.09294881 0.051862728
-0.13794202 -0.11363783 -0.012166694 -0.025417946 0.070009276 -0.09682663 -0.020983422 -0.07107109
0.08161339 0.10493286 0.042576794 -0.03154223 0.08387998 -0.093127675 -0.014176838 -0.05254048
0.06402761 -0.07188136 0.09638921 -0.05735369 -0.034912802 0.10890886 -0.110651314 0.04070347
-0.06770305 0.030225292 0.013838409 -0.094819844 -0.009589133 -0.081051946 -0.043513067 0.1065989
0.044989552 -0.016000511 0.0130678415 -0.122615516 -0.06608516 0.06905142 -0.08127857 -0.0488737
0.10646084 -0.007863611 -0.043040663 0.06586451 -0.032528322 0.079903044 0.014971731 -0.034232162
-0.048732717 0.02964668 -0.042020325 -0.023964124 0.09148294 0.04782243 -0.051568415 -0.042194102
-0.03066801 -0.04972855 0.057164494 -0.024665445 -0.053477112 0.0061864313 0.0803044 0.007830202
0.03806585 -0.08109075 -0.11423308 -0.069821246 0.003828251 -0.09088764 0.08071418 -0.11476169
0.04073992 -0.07618266 -0.0834582 -0.024268506 -0.03238058 0.05984861 -0.02358183 0.04603824
-0.017056048 0.057920158 -0.04099875 -0.051783644 -0.124676906 -0.11020574 0.058488533 -0.09888355
00000000: 262c 82bd fd56 343d f55a c73d 0a85 4d3d
00000010: bb0b 5a3d 05dd ccbc 02c0 24bd 99f0 f33d
00000020: efe7 a53d eaad 963d 1731 f3bc ace5 523d
00000030: 2a89 cc3d 163c 5dbc e55f 11bd 74a3 23bd
00000040: 75a8 2ebd 02ec ffbd 0bec 3abd 3530 72bc
00000050: 420d 83bd d9cb c4bc 3d66 1e3d a734 a23c
00000060: c4d3 bcbd 4cef cf3d e137 3dbc bcf2 4c3d
00000070: c9de b43c ef61 09be be03 debd 7ef4 df3d
00000080: 0763 0cbd 4e63 79bd a315 65bd 6c32 9d3d
00000090: da5e 83bb 0902 00bd c6a8 a9bc 6b59 97bd
000000a0: a4e9 f8bc 301e b33a ece8 6a3d 6105 a0bc
000000b0: 5b26 e63c b4ba 9f3a b4ec 2f3d 6d6a 90bb
000000c0: d352 a93c caf6 98bd 3cda 91bc d034 66bd
000000d0: c2c2 97bc 0562 a13d 9a47 b93d b0af 91bc
000000e0: c800 f3bd 2559 b7bd 5faa 83bd 53ec d73d
000000f0: 7253 95bd 302a d3bc 5067 2e3c 4edb 1cbc
00000100: bac8 c03d c0f7 63bd b67f ceba d823 28bd
00000110: b2d8 d23d 7045 16be bf6f cdbd c684 373c
00000120: eb13 f03d 73ec 80bd 9579 c7bc 7247 b1bd
00000130: fc55 9c3d 053a 4a3c 4c80 0abe 7775 883d
00000140: 3c34 8ebd e231 cdbd 4686 dbbd d4b0 a63d
00000150: ff7d 8fbd 7e7d 3c3d f29f 99bd db68 a23d
00000160: 3c72 87bc 5c53 ae3d 9688 bd3d 806b c8bb
00000170: 755d 9c3d 5637 1b3d 712e 5fbd fd36 c33d
00000180: cb05 e1bc d85a d9ba 361d 243d 807b d3bc
00000190: 8eda dcbd f2a9 a7bd d03b fcba 276d 35be
000001a0: da6c edbd 507a 3abd 6e54 b7bd 1688 3abd
000001b0: efda bc3d 17ef 6e3d 4b10 8ebd efe2 ebbc
000001c0: 81fa ffbd 00e9 d8bc 31e0 913c 180d d8bd
000001d0: 2e35 b33c e5a4 a5bd 98b7 b3bd d47a cb3d
000001e0: dc54 b03d b729 f7bd e44c d9bd c03c e9bb
000001f0: 3cb5 cb3d 80a7 a43a 543d ffbd 0eb0 a1bd
00000200: e0b4 c2bc bcf4 283d 4cc2 bdbc f1e0 2f3d
00000210: 9d16 82bd e4bd 26be fbba f7bd f9c0 a9bd
00000220: 2d74 75bd cc80 dfbd 9e82 cb3d f02c c63d
00000230: 7b52 baba d3a1 9cbd 6421 25be 7288 cdbd
00000240: 3e80 04be 284e da3d 4ed1 c6bd 4cea ee3c
00000250: 6a51 fbbd ff59 283d be4d 6ebd 0dbe 4bbd
00000260: 9f63 edbd 96ae 883d f098 e5bc 9e56 f5bd
00000270: fb63 4bbd 5dc5 d9bd be86 ffbd 60bd fbbc
00000280: cbb8 8abd aed1 a0bb 2d75 4bbc 1cd3 80bd
00000290: e1be 1fbd 559f 8b3c f25b bebd 036e 543d
000002a0: ac40 0dbe f3ba e8bd d056 47bc 4c39 d0bc
000002b0: 0661 8f3d 0a4d c6bd 6de5 abbc b88d 91bd
000002c0: ec24 a73d 0ae7 d63d 0165 2e3d 6d32 01bd
000002d0: 44c9 ab3d b9b9 bebd f845 68bc b034 57bd
000002e0: e820 833d 8936 93bd b567 c53d b4eb 6abd
000002f0: ba00 0fbd 9c0b df3d 289d e2bd afb8 263d
00000300: e6a7 8abd 089b f73c 7fba 623c e830 c2bd
00000310: bd1b 1dbc 90fe a5bd c23a 32bd 8650 da3d
00000320: f746 383d 8113 83bc 801a 563c d81d fbbd
00000330: a857 87bd d56a 8d3d 6175 a6bd ca2f 48bd
00000340: 2408 da3d 60d6 00bc 684b 30bd f9e3 863d
00000350: 6b3c 05bd 35a4 a33d fe4b 753c 0637 0cbd
00000360: f59b 47bd 98dd f23c 811d 2cbd 6950 c4bc
00000370: 685b bb3d 74e1 433d 6739 53bd b9d3 2cbd
00000380: 7a3b fbbc 2ab0 4bbd 5125 6a3d 300f cabc
00000390: d10a 5bbd 8cb7 ca3b a276 a43d 3f4a 003c
000003a0: f0ea 1b3d e812 a6bd 08f3 e9bd 71fe 8ebd
000003b0: 65e3 7a3b 4d23 babd 7a4d a53d 2d08 ebbd
000003c0: e7de 263d a805 9cbd 22ec aabd bfce c6bc
000003d0: 80a1 04bd d123 753d af2e c1bc 9892 3c3d
000003e0: 20b9 8bbc b03d 6d3d 4eee 27bd 161b 54bd
000003f0: 9b56 ffbd 8cb3 e1bd ac91 6f3d 7583 cabd

bias f4 [32]
0.0671857 -0.11217077 -0.1190327 -0.045237992 -0.04120314 0.111177966 -0.093140304 -0.0024131504
0.01464385 0.029957866 0.08063713 0.08069609 -0.093316235 -0.065585814 -0.041103583 0.09376698
-0.0419558 0.107150726 0.06957218 0.038394015 0.062445685 0.09109837 -0.09149777 0.04703364
-0.14994064 0.046551153 -0.04157467 -0.041507196 -0.103704534 0.10085454 -0.018706657 0.17439784
00000000: a898 893d cab9 e5bd 6bc7 f3bd 794b 39bd
00000010: a0c4 28bd 46b1 e33d 58c0 bebd f225 1ebb
00000020: c2ec 6f3c 336a f53c 1425 a53d fe43 a53d
00000030: 951c bfbd db51 86bd 3b5c 28bd e708 c03d
00000040: d8d9 2bbd d771 db3d dc7b 8e3d 0b43 1d3d
00000050: 0cc7 7f3d c891 ba3d 2f63 bbbd 59a6 403d
00000060: 0a8a 19be 6cac 3e3d 334a 2abd 7303 2abd
00000070: 0b63 d4bd d38c ce3d b43e 99bc 5995 323e

weight f4 [1, 32]
0.06572828 0.06977408 -0.10492749 0.06966352 -0.0881515 0.017575523 -0.11232978 -0.087014064
0.009501026 0.0051364535 -0.0075235995 0.014338686 -0.06625407 0.007832102 0.0042193877 0.09451362
-0.052150212 0.1472973 -0.09098999 0.009297912 0.006726761 0.07410076 -0.009350114 -0.06855197
-0.118454345 -0.051252194 -0.096421435 -0.038309988 -0.10839488 0.0060509676 0.0054649385 0.027203096
00000000: 8c9c 863d b6e5 8e3d 39e4 d6bd bfab 8e3d
00000010: c688 b4bd 8bfa 8f3c 280d e6bd 6e34 b2bd
00000020: 31aa 1b3c b24f a83b 8788 f6bb cfec 6a3c
00000030: 37b0 87bd 3752 003c ca42 8a3b 5b90 c13d
00000040: 769b 55bd 1ad5 163e f658 babd 4556 183c
00000050: 296c dc3b 24c2 973d 3831 19bc fa64 8cbd
00000060: 3198 f2bd d2ed 51bd 9a78 c5bd efea 1cbd
00000070: 23fe ddbd 3247 c63b 3a13 b33b 07d9 de3c
